data.pth (torch, 5418 bytes, 6 tensors)

l1.weight f4 [8, 54]
00000000: 2819 a53e 5e95 313f da0a 993e 27ec e0be
00000010: 293f a63c 442b 323e 7454 a63e e97b 903e
00000020: a0c3 013f a2c5 2d3e de57 84be 6d2d ecbe
00000030: a9e7 523f 5e2b 10be ad25 263f 4cad f5be
00000040: 1f2d 71be fa19 0b3e 4760 0c3f 11b9 fcbe
00000050: 13da 0d3e 48b5 fcbe ccb8 fcbe f2e0 4fbf
00000060: 30cb 6c3e a81c a0be ccef 1f3f a76f 5e3f
00000070: 31af bf3e addb 1c3f 8ee2 3a3d 5c1f 3abd
00000080: 4adc 263e 6a5a a73e 5306 603f f783 83be
00000090: 4f20 da3e 0a3f 193f 50f2 983e 72b2 ec3e
000000a0: b75f afbd 966a bf3e e962 993d f2fa 0c3f
000000b0: 6255 be3e 6d9f 543f ba68 043f c4e5 843e
000000c0: fc60 843e 1d38 0c3f 9cf2 b3be e9cb d33e
000000d0: be32 bf3e 7527 033f a536 0d3c c3ac 96bd
000000e0: 085c 053f fc34 8abe ebcc a4bc c436 223f
000000f0: 3a0f e03e 0a97 c93e ac6f 0c3f 16b5 db3e
00000100: 36f7 7abe 09bc 61be 4733 273f 834d 92bd
00000110: 849d 2cbd 8a73 51be 66ee 33be 4a13 583f
00000120: 717e cd3e ef81 d7be 10ad 51bc b56c d7be
00000130: 8978 d7be e037 0ebf da54 883b 0bca ccbe
00000140: c4d9 ea3e 05ea 35be c8f6 d43e 85bf 78be
00000150: 0bc8 ba3e 7721 1dbd 7ae3 773c ff97 d53e
00000160: c4a6 9f3e 83ee 7ebe 5673 ee3e dfc3 f53e
00000170: 0645 1a3f 7873 123f 43d4 823e 5904 303f
00000180: 3b39 6a3d 774d 1a3e eb48 1c3e ef50 823e
00000190: 2b7b 3bbf fb2c 6cbc b721 7f3e 42a2 283f
000001a0: 3890 cfbe 6b64 b13e d6a1 eb3e 2c3b a03e
000001b0: 6770 eb3e c02a e23e 6b3d 7a3c be1a 72be
000001c0: 2b8f 98be 86ce 05bf fe4c 383e abb0 70be
000001d0: 8fc9 053f 9f21 aabc b7b4 84be e49b e63e
000001e0: be55 153f b6b2 db3e f078 b23e ed8c 863d
000001f0: abe4 ebbd 00c2 05bf db92 0d3f b430 c3be
00000200: a99a 0c3f f7f3 d3be fa8e c5be 8fdc 26bd
00000210: 27e9 963e 3bd2 2bbe aa6b 3d3f fd5e 9e3e
00000220: 5309 c03e c6cd c0bd 82c8 dbbe ace5 cb3e
00000230: 1a5a f53e 1408 b2bd 2270 e33e 245c 853e
00000240: 870a 0a3f 3160 a33e 444b af3e 0663 873e
00000250: f4b2 cfbe 13b9 f73e 6294 a83e 35fa f53e
00000260: 34f6 793e 7946 f33e 5c4f 883f 3cbc e13e
00000270: 8aca 333e fce5 203f 3da0 343e f24f 013f
00000280: 3c5e 343e cd01 a03e 701d c6bd 8f8c 92bd
00000290: 9e74 1d3f 3e8c 80be 5736 a23e 3b1f 3a3f
000002a0: bd8a 003f 58cf 0e3f f04f 123f 99fd f03e
000002b0: d56c 4dbe 6f9e b3be 4775 ad3e abc1 6fbe
000002c0: c571 bbbd 333f 62be 3917 82be e42e 323f
000002d0: 788b 1dbe 1edb e8be fa32 febd c0ce e8be
000002e0: d3cb e8be 0d22 babe aa50 ae3e ae33 7ebe
000002f0: c680 ed3d 2233 353d 2a5a 543d 630f a1be
00000300: 5a38 2f3f 213c 2dbe 8028 a5bd b985 023f
00000310: 6dbf 2f3e fdc8 9ebe db99 b23d fd62 053f
00000320: a274 a33e a837 123f 8c5e 0e3f 0c68 59be
00000330: 0986 65be 5d33 bfbd 6d66 d13e e75d e9bc
00000340: 34bf 1ebf 6f00 70be fb78 363d 7c73 08be
00000350: d61b 81be 85c0 3f3c 6388 ee3e 47b2 293e
00000360: 8186 0e3f 0e1e 6c3e 2cc0 ddbe 13a3 e83d
00000370: 76d2 0c3e 955c 34bf f940 70be 327a dbbe
00000380: b1ad 07bf fc52 c9be 09e2 ab3e 9132 143f
00000390: 36d7 173e e3ea 1b3f b5ca 413d 464f b93e
000003a0: 0312 a03e 7950 34bf f6e0 593e c07c 073f
000003b0: b2c8 1e3f 5b72 fc3e 582f 383f 0beb 163f
000003c0: 049e c73e 215b 743d b82a ad3e 621d 05bd
000003d0: 569f 2e3e 2700 bf3d 5a95 d3be e7e3 e93e
000003e0: de59 dc3e da3e b5be f25d f8bd 2d09 083f
000003f0: 8e2e 633e 0cd6 96be 5d2f 9cbd 8844 a1be
0.32245755 0.6936854 0.29891092 -0.4393017 0.020293789 0.17399317 0.32486308 0.28219536
0.50689125 0.16969922 -0.25848287 -0.46128407 0.82384735 -0.14079043 0.6490124 -0.47983778
-0.23552369 0.13584128 0.5483441 -0.49359944 0.1385272 -0.49357057 -0.4935974 -0.81202614
0.23124385 -0.31271863 0.62475276 0.8688912 0.37438348 0.612727 0.045626216 -0.045440063
0.16294971 0.32686168 0.8750965 -0.2568662 0.42602775 0.59861815 0.2987237 0.46229893
-0.08563178 0.37386006 0.07489569 0.5507041 0.37174517 0.83055764 0.517223 0.25956547
0.25855243 0.5477312 -0.35146034 0.4136651 0.373434 0.5123208 0.008618985 -0.073571704
0.52093554 -0.2699355 -0.020117244 0.63364816 0.43761617 0.39373046 0.548579 0.42911595
-0.24508366 -0.22044386 0.6531262 -0.071436904 -0.042142406 -0.20454231 -0.1757141 0.8440443
0.4013553 -0.4209132 -0.012797609 -0.42075124 -0.4208415 -0.5555401 0.0041605057 -0.39997897
0.45869267 -0.17765053 0.4159453 -0.24291809 0.36480746 -0.038361993 0.015129918 0.41717526
0.3118192 -0.24895673 0.4657237 0.48001 0.6026157 0.5720744 0.25552568 0.68756634
0.057183485 0.15068613 0.15262191 0.25452372 -0.73234814 -0.014415021 0.24915205 0.65872586
-0.40539718 0.34646925 0.4602191 0.31295145 0.45984194 0.4417324 0.015273432 -0.23643014
-0.29796728 -0.52268255 0.1799812 -0.23504893 0.5226068 -0.020767985 -0.25919124 0.4504081
0.5833396 0.42909783 0.34857893 0.06569848 -0.11518224 -0.52249146 0.5530221 -0.38123095
0.5492349 -0.41397068 -0.38585645 -0.040737685 0.29474756 -0.16779415 0.7399241 0.30931845
0.37507114 -0.09414248 -0.42926413 0.39823663 0.47920305 -0.08692947 0.44421488 0.2604686
0.53922313 0.31909326 0.3423711 0.26442736 -0.40566218 0.48383388 0.32925707 0.48042455
0.24410325 0.47514704 1.0649219 0.44088924 0.17557731 0.6285093 0.17639251 0.5051261
0.17614073 0.31251374 -0.096735835 -0.07155716 0.6150607 -0.25106996 0.31682083 0.72703904
0.502117 0.5578513 0.57153225 0.4706848 -0.20061047 -0.35081813 0.33878538 -0.23413722
-0.09152559 -0.22094421 -0.25408342 0.696028 -0.15385234 -0.45479673 -0.12412067 -0.45470238
-0.45468006 -0.36354104 0.34045917 -0.24824402 0.11596827 0.044238217 0.0518438 -0.31457052
0.6844536 -0.16917469 -0.080643654 0.50985295 0.17162867 -0.31012717 0.08720752 0.5210417
0.3192492 0.57116175 0.5561302 -0.21231097 -0.22414412 -0.09335969 0.40898457 -0.028487159
-0.620105 -0.23437665 0.04454897 -0.13325304 -0.2521655 0.011703615 0.4658843 0.16571914
0.55673987 0.2305834 -0.43310678 0.11359229 0.1375216 -0.7045377 -0.23462285 -0.42866665
-0.5299941 -0.39321125 0.3357089 0.5788966 0.1482819 0.60905284 0.047312457 0.36193293
0.31263742 -0.7043529 0.21277222 0.5292473 0.62024987 0.49305996 0.7194724 0.589524
0.38987744 0.05965722 0.33821654 -0.032498725 0.1705297 0.09326201 -0.41324884 0.45681688
0.43037313 -0.35399514 -0.12127294 0.53139 0.22185728 -0.2946018 -0.07626221 -0.31497598

l1.bias f4 [8]
00000000: f0b4 fc3e 626c d73e 6ace 053f 7ec9 e83e
00000010: d256 343f 829b 4d3f b13e 463f 7ce1 823f
0.49356794 0.42074877 0.5226809 0.45466226 0.7044498 0.8031541 0.7743941 1.0225062

l2.weight f4 [8, 8]
00000000: 5d5e 21be 1777 6cbf 4646 a93e ae6a 2bbf
00000010: 9a13 ff3e 98c4 b13f de9d 323e f25d 3f3e
00000020: bb61 3c3e 6343 1fbe e1ad 58bd d6f0 443e
00000030: ba15 37bd 88e4 58be 337b 88be 5949 6e3c
00000040: 6a87 493f 234c a13f aba9 a53e 6018 5f3f
00000050: 2a29 17bf 8a09 b13e 7b4b 493f a47b 93be
00000060: 5286 b83f 7190 843e 74db b03f a45e 33bf
00000070: 84ef 8d3f 472f 523e f15f 80bf 703f d93d
00000080: 6494 51bf fd01 37bf 07c8 ef3e ec56 66be
00000090: 2238 493f 3210 6d3f 4550 a93e b700 a53f
000000a0: cb97 b5be 595d 08bf 3b0c 7bbf 9e46 b1be
000000b0: 3008 533e f900 5e3f fd61 8c3f 2266 953f
000000c0: 3756 1bbf 4dd3 35bf d8a3 373e da99 0cbf
000000d0: bbb8 343f df58 3d3f 8c01 39be 4d22 3abf
000000e0: ddee a53e 1e4b ad3e a2d7 3dbf 2b7d 743f
000000f0: 1983 6cbf e607 8e3f dbaa 5f3f 43a1 9d3f
-0.15758653 -0.92369217 0.33061427 -0.66959655 0.49819642 1.3888121 0.17443034 0.18688181
0.18396656 -0.1555305 -0.0529002 0.19232497 -0.044698454 -0.21180928 -0.26656494 0.014543855
0.7872225 1.260136 0.3235601 0.8714657 -0.59047186 0.3457759 0.786308 -0.28805268
1.4415991 0.2589145 1.3816972 -0.70066285 1.1088719 0.20525847 -1.0029279 0.10607803
-0.8186705 -0.7148741 0.46832296 -0.22494096 0.78601277 0.9260284 0.33069053 1.2890843
-0.3546737 -0.5326744 -0.9806554 -0.3462419 0.20608592 0.86720234 1.0967404 1.1671793
-0.6067843 -0.71025544 0.17933595 -0.5492226 0.70594376 0.7396373 -0.18066996 -0.7270859
0.324088 0.33846372 -0.74157155 0.9550349 -0.9238754 1.109616 0.8737008 1.2314838

l2.bias f4 [8]
00000000: d771 a0bd 25c1 09be 518d 18be f6ae 253f
00000010: 8799 363f 26a4 9b3e 5f5e 14be f701 123f
-0.07834213 -0.13452585 -0.14897658 0.64720094 0.71328014 0.30398673 -0.14489125 0.5703425

l3.weight f4 [7, 8]
00000000: 1dad 4a3f 2906 05be 9026 8abf 1396 6ebe
00000010: c283 753e a754 63bf ea36 3e3f b089 1fbf
00000020: 8c78 e13e e1c7 923e 5ec1 74be 09ae 103e
00000030: cd04 a0be c2c7 c7be 93b7 94bf 5a7f 353e
00000040: 1253 e3bf 4ad6 c3bc 4e44 393e 3e0d acbf
00000050: 8146 683e 9a74 903e b8c2 dfbe 7c04 2b3f
00000060: e6a7 963e 21fa cbbd 8d2a 64bf 057a 65bf
00000070: 9f98 0a3f a270 043f 40e2 28bf e9a5 c73d
00000080: a08d 8ebf b73b 7cbe 57fa e03e 95ce 233f
00000090: 8ac4 87bf 2153 32bf 1b48 263c f5e0 61bf
000000a0: 23e2 51bf 2363 aabe 1375 773f a78a 0abf
000000b0: b5ff 9ebf d70c 92bf 0105 85be 85d0 d53e
000000c0: 87d8 d5bd f98f 2fbc 75ff 89bf 86dc 4d3f
000000d0: 24ce fb3e 94e6 c3bf b6f0 97bf 9c98 7abf
0.791704 -0.12990631 -1.0793018 -0.23299436 0.23976043 -0.88801044 0.7430254 -0.6231947
0.44037282 0.2866812 -0.23901889 0.14128889 -0.31253663 -0.3901959 -1.1618522 0.17724362
-1.7759726 -0.023905892 0.18092462 -1.3441541 0.22683145 0.2821396 -0.43703246 0.6680372
0.2942497 -0.09959818 -0.8912743 -0.8963931 0.5413913 0.51734364 -0.6597023 0.09748442
-1.113697 -0.24632154 0.43940994 0.63987094 -1.0606854 -0.69658095 0.010149027 -0.8823388
-0.8198568 -0.3327876 0.96663016 -0.54117817 -1.2421786 -1.1410168 -0.2598038 0.4176065
-0.1044169 -0.010715478 -1.0781084 0.8041462 0.4918071 -1.5304742 -1.1870334 -0.97889113

l3.bias f4 [7]
00000000: 4eba 0abe 8e82 d0be 872e b13d f7cc 2c3e
00000010: 0e68 873d 1544 04be 3ff1 db3e
-0.13547632 -0.40724605 0.086514525 0.16875063 0.06611644 -0.12916596 0.42957494
